mnist_nearest_demo_ptq.tflite (tflite, 34080 bytes, 8 tensors)

sequential_8/input/Conv2D i1 [32, 2, 2, 1]
-121 95 127 109 -127 -65 -39 -105
91 -16 127 -74 46 -23 127 59
-107 -82 127 23 127 -37 -65 -2
22 90 -127 -97 -75 -20 75 -127
127 125 51 51 -82 32 -76 127
-127 19 105 -11 114 -127 113 -122
-7 14 127 -88 -127 90 -119 -21
26 -127 -8 123 -9 79 -127 48
111 117 -127 73 -9 127 -21 0
-101 -34 127 44 124 82 -41 127
-127 -100 123 41 48 127 -53 -120
31 48 127 99 -122 -32 -113 127
50 121 -127 -89 -45 61 127 -52
-42 -37 -127 -111 -127 98 -51 -88
-127 -18 -82 -60 -114 106 127 21
-96 29 -36 127 -23 -75 127 -40
00000000: 875f 7f6d 81bf d997 5bf0 7fb6 2ee9 7f3b
00000010: 95ae 7f17 7fdb bffe 165a 819f b5ec 4b81
00000020: 7f7d 3333 ae20 b47f 8113 69f5 7281 7186
00000030: f90e 7fa8 815a 89eb 1a81 f87b f74f 8130
00000040: 6f75 8149 f77f eb00 9bde 7f2c 7c52 d77f
00000050: 819c 7b29 307f cb88 1f30 7f63 86e0 8f7f
00000060: 3279 81a7 d33d 7fcc d6db 8191 8162 cda8
00000070: 81ee aec4 8e6a 7f15 a01d dc7f e9b5 7fd8

sequential_8/conv2d_51/Conv2D i1 [32, 2, 2, 32]
11 -10 9 40 -26 -1 -62 -52
-9 -27 32 127 50 38 18 -46
-22 -34 -27 -42 18 -18 -8 8
11 32 30 10 7 -24 -11 47
3 -40 -25 18 -25 -1 -1 -11
11 61 11 22 10 31 -58 48
-3 43 -32 3 12 -30 17 27
28 34 37 -22 -6 3 48 -3
-35 6 1 13 5 8 -9 -35
-6 -47 -14 8 19 -15 21 -21
-25 -15 18 19 50 2 28 -90
17 -25 17 -10 -9 -35 17 -4
28 -26 -30 5 33 7 -27 -55
27 30 -22 28 12 -59 -23 -50
-6 42 42 -35 -36 46 2 35
-33 -2 -19 -76 -7 48 24 38
-2 5 57 77 -47 54 -52 -48
55 66 -20 80 -2 -29 -70 -22
-3 17 -7 37 -96 -4 22 28
-41 67 -45 32 -49 73 53 -40
-35 -32 -53 12 -48 22 -42 -29
-59 13 46 51 26 31 81 -9
7 16 20 -60 -68 -3 -25 23
-59 -29 -30 24 0 -17 39 -7
-36 26 -7 38 26 2 -41 46
52 40 -5 62 72 97 -25 70
41 -17 -10 -13 -38 -22 -29 -127
-41 -31 52 59 -24 48 24 32
-25 -24 32 3 33 -58 -16 9
-33 22 45 27 44 -23 6 -4
-35 -8 19 25 0 -73 7 -31
-2 49 26 13 -19 -5 21 63
00000000: 0bf6 0928 e6ff c2cc f7e5 207f 3226 12d2
00000010: eade e5d6 12ee f808 0b20 1e0a 07e8 f52f
00000020: 03d8 e712 e7ff fff5 0b3d 0b16 0a1f c630
00000030: fd2b e003 0ce2 111b 1c22 25ea fa03 30fd
00000040: dd06 010d 0508 f7dd fad1 f208 13f1 15eb
00000050: e7f1 1213 3202 1ca6 11e7 11f6 f7dd 11fc
00000060: 1ce6 e205 2107 e5c9 1b1e ea1c 0cc5 e9ce
00000070: fa2a 2add dc2e 0223 dffe edb4 f930 1826
00000080: fe05 394d d136 ccd0 3742 ec50 fee3 baea
00000090: fd11 f925 a0fc 161c d743 d320 cf49 35d8
000000a0: dde0 cb0c d016 d6e3 c50d 2e33 1a1f 51f7
000000b0: 0710 14c4 bcfd e717 c5e3 e218 00ef 27f9
000000c0: dc1a f926 1a02 d72e 3428 fb3e 4861 e746
000000d0: 29ef f6f3 daea e381 d7e1 343b e830 1820
000000e0: e7e8 2003 21c6 f009 df16 2d1b 2ce9 06fc
000000f0: ddf8 1319 00b7 07e1 fe31 1a0d edfb 153f

sequential_8/conv2d_52/Conv2D i1 [32, 2, 2, 32]
-34 2 -7 -64 -40 -41 81 -40
-103 -108 28 -48 -11 27 -7 -51
29 -23 9 -64 -82 22 67 -60
-104 -70 36 34 -43 -16 63 -20
-16 62 46 49 1 -56 22 35
-43 9 -60 -99 -85 -2 -44 -108
15 32 -127 -116 29 19 18 43
-38 4 6 -14 -2 19 35 -64
-52 10 100 50 -27 -19 57 73
8 -112 113 63 66 34 -35 -40
-13 -58 5 -78 97 52 -64 -6
30 -71 -110 -34 -90 -100 75 -49
64 -12 90 34 57 -15 74 72
-62 -107 97 -69 -21 11 -13 -21
-82 -83 16 -29 83 -82 -16 7
74 25 86 -99 -81 -107 32 -41
-56 -43 -6 -62 -14 -86 23 -7
-24 -39 -50 74 -64 32 -58 42
1 -54 -70 32 17 26 24 18
9 -68 4 -70 -40 -27 -8 -29
14 -33 -48 -21 -68 -88 -113 -42
-17 12 -59 -30 18 -65 58 -81
-33 22 4 -47 14 -6 -61 -29
-99 -12 -23 -87 -61 -54 48 -110
-19 -31 -2 9 -88 12 22 -53
-73 -15 24 88 50 -30 -68 10
-80 -9 -90 -75 27 1 -73 18
44 -41 -85 7 9 -39 32 97
-37 -41 5 -31 -50 12 -53 113
14 -7 34 -10 72 83 76 0
-127 -72 -56 -69 7 48 -60 79
48 -53 -86 51 -24 -61 88 25
00000000: de02 f9c0 d8d7 51d8 9994 1cd0 f51b f9cd
00000010: 1de9 09c0 ae16 43c4 98ba 2422 d5f0 3fec
00000020: f03e 2e31 01c8 1623 d509 c49d abfe d494
00000030: 0f20 818c 1d13 122b da04 06f2 fe13 23c0
00000040: cc0a 6432 e5ed 3949 0890 713f 4222 ddd8
00000050: f3c6 05b2 6134 c0fa 1eb9 92de a69c 4bcf
00000060: 40f4 5a22 39f1 4a48 c295 61bb eb0b f3eb
00000070: aead 10e3 53ae f007 4a19 569d af95 20d7
00000080: c8d5 fac2 f2aa 17f9 e8d9 ce4a c020 c62a
00000090: 01ca ba20 111a 1812 09bc 04ba d8e5 f8e3
000000a0: 0edf d0eb bca8 8fd6 ef0c c5e2 12bf 3aaf
000000b0: df16 04d1 0efa c3e3 9df4 e9a9 c3ca 3092
000000c0: ede1 fe09 a80c 16cb b7f1 1858 32e2 bc0a
000000d0: b0f7 a6b5 1b01 b712 2cd7 ab07 09d9 2061
000000e0: dbd7 05e1 ce0c cb71 0ef9 22f6 4853 4c00
000000f0: 81b8 c8bb 0730 c44f 30cb aa33 e8c3 5819

sequential_8/conv2d_53/Conv2D i1 [8, 2, 2, 32]
-25 23 112 -60 -69 64 -8 -64
-115 24 54 -21 -61 -46 81 23
-4 65 -68 -36 -54 70 -70 34
-32 37 28 -58 -46 -96 15 63
-19 -127 -41 -64 -15 -17 46 48
98 -7 46 9 48 -46 5 44
-18 -47 17 45 68 -24 -10 57
-29 -62 -17 60 -25 11 -3 34
-117 -99 -35 43 28 -63 7 -6
50 40 42 -40 -2 -4 32 22
-13 29 91 64 52 -31 27 -21
42 -87 -16 -84 27 65 33 43
60 58 6 -30 -40 62 34 -14
-72 -17 -48 -5 26 -46 75 84
-28 1 24 65 69 18 2 28
-25 35 26 27 17 30 21 -18
-25 17 -23 35 7 51 73 -43
59 76 -44 53 31 43 -72 -9
33 -12 39 68 -14 44 70 -40
70 53 -105 -35 -25 -34 -48 38
-5 5 -23 -119 -27 53 6 1
-3 -5 15 -65 -31 83 -23 29
-20 52 91 -48 41 77 -1 80
-40 -19 -9 -4 -42 -75 48 -30
-5 -2 22 -38 -28 -65 74 19
-65 -2 -76 30 -55 6 -12 -37
-17 -85 -18 -61 -69 -20 -21 -64
-52 31 -45 -54 4 36 -127 -13
-22 -19 -7 -30 29 52 63 56
-49 -41 51 20 3 -15 7 5
0 22 20 -23 31 -28 -27 -30
-122 54 -8 -35 -61 -30 -52 -75
00000000: e717 70c4 bb40 f8c0 8d18 36eb c3d2 5117
00000010: fc41 bcdc ca46 ba22 e025 1cc6 d2a0 0f3f
00000020: ed81 d7c0 f1ef 2e30 62f9 2e09 30d2 052c
00000030: eed1 112d 44e8 f639 e3c2 ef3c e70b fd22
00000040: 8b9d dd2b 1cc1 07fa 3228 2ad8 fefc 2016
00000050: f31d 5b40 34e1 1beb 2aa9 f0ac 1b41 212b
00000060: 3c3a 06e2 d83e 22f2 b8ef d0fb 1ad2 4b54
00000070: e401 1841 4512 021c e723 1a1b 111e 15ee
00000080: e711 e923 0733 49d5 3b4c d435 1f2b b8f7
00000090: 21f4 2744 f22c 46d8 4635 97dd e7de d026
000000a0: fb05 e989 e535 0601 fdfb 0fbf e153 e91d
000000b0: ec34 5bd0 294d ff50 d8ed f7fc d6b5 30e2
000000c0: fbfe 16da e4bf 4a13 bffe b41e c906 f4db
000000d0: efab eec3 bbec ebc0 cc1f d3ca 0424 81f3
000000e0: eaed f9e2 1d34 3f38 cfd7 3314 03f1 0705
000000f0: 0016 14e9 1fe4 e5e2 8636 f8dd c3e2 ccb5

sequential_8/conv2d_54/Conv2D i1 [32, 2, 2, 8]
-10 127 105 40 9 81 -33 58
65 -11 62 -79 -49 -34 47 96
-2 24 -47 -66 -47 -2 -45 -126
45 22 29 33 -12 -26 54 -16
16 -30 -75 31 -11 -17 9 1
23 127 19 -75 32 72 -66 -9
-2 -1 27 52 67 -42 -43 -23
12 31 77 -84 -51 5 1 35
70 98 31 -37 24 127 -87 94
94 -39 -27 -51 -28 -92 101 34
-39 80 70 -33 -15 -81 -30 -47
59 116 24 13 16 75 11 -110
55 -50 5 -50 9 38 -81 43
-27 49 51 -50 30 -46 96 96
56 48 -54 16 -30 -36 42 -52
-86 38 47 9 -26 -23 -67 -127
1 36 -86 33 -64 -16 -68 108
-62 8 54 111 -41 -104 119 29
-68 127 -51 -47 40 113 -54 38
9 -56 0 -86 95 24 102 47
-72 37 -83 -88 12 48 -37 65
-5 58 6 -19 -33 -71 91 18
-51 127 -16 -5 23 73 41 -37
103 109 32 -54 -22 41 73 -65
-121 -8 43 48 67 79 -42 1
114 -7 37 40 74 64 63 96
24 -127 -27 -73 -120 -34 101 -63
-25 1 69 -66 -26 -71 68 6
-10 -102 -119 81 -127 -71 28 6
-45 28 -113 -98 -6 -27 -14 -4
98 30 29 25 50 -40 21 -3
25 -81 43 -56 78 -33 -42 127
00000000: f67f 6928 0951 df3a 41f5 3eb1 cfde 2f60
00000010: fe18 d1be d1fe d382 2d16 1d21 f4e6 36f0
00000020: 10e2 b51f f5ef 0901 177f 13b5 2048 bef7
00000030: feff 1b34 43d6 d5e9 0c1f 4dac cd05 0123
00000040: 4662 1fdb 187f a95e 5ed9 e5cd e4a4 6522
00000050: d950 46df f1af e2d1 3b74 180d 104b 0b92
00000060: 37ce 05ce 0926 af2b e531 33ce 1ed2 6060
00000070: 3830 ca10 e2dc 2acc aa26 2f09 e6e9 bd81
00000080: 0124 aa21 c0f0 bc6c c208 366f d798 771d
00000090: bc7f cdd1 2871 ca26 09c8 00aa 5f18 662f
000000a0: b825 ada8 0c30 db41 fb3a 06ed dfb9 5b12
000000b0: cd7f f0fb 1749 29db 676d 20ca ea29 49bf
000000c0: 87f8 2b30 434f d601 72f9 2528 4a40 3f60
000000d0: 1881 e5b7 88de 65c1 e701 45be e6b9 4406
000000e0: f69a 8951 81b9 1c06 d31c 8f9e fae5 f2fc
000000f0: 621e 1d19 32d8 15fd 19af 2bc8 4edf d67f

sequential_8/conv2d_55/Conv2D i1 [32, 2, 2, 32]
1 -66 71 -7 50 73 55 66
80 12 6 -7 54 92 -68 96
39 -40 17 33 56 -97 -84 -80
53 7 93 13 22 -30 37 -25
-10 17 -29 69 2 -21 -67 57
23 69 -27 93 -60 37 50 27
-42 -56 21 38 18 32 -46 -46
43 -54 46 -94 34 82 6 22
32 35 41 -18 -66 8 19 20
58 48 -50 39 30 87 53 33
-26 -39 -15 -15 40 1 7 25
-37 58 -44 -48 -50 -7 -37 -27
10 27 14 -16 43 26 -105 43
1 -4 -15 68 -5 75 -13 -65
-13 44 61 73 31 -5 -9 29
60 127 -26 -42 -3 -54 19 22
58 -15 95 17 -16 -11 44 -36
6 69 -11 28 50 127 90 29
17 28 -43 93 -44 48 57 -48
39 -37 -13 -14 -27 60 9 47
26 -40 31 18 73 29 -40 -23
46 23 15 31 35 100 -11 4
24 39 27 26 46 -43 -70 64
-7 52 4 -18 -25 41 -2 -33
33 -57 20 66 -21 -16 53 -74
-57 -42 -60 -4 31 -59 4 12
-18 29 47 6 -36 19 68 -62
-36 -14 17 42 19 56 13 -14
21 -23 -3 36 -52 35 57 -7
13 -28 34 -35 41 -18 -25 24
-24 70 46 -59 -83 11 36 -18
-21 -47 -16 0 -33 1 8 -32
00000000: 01be 47f9 3249 3742 500c 06f9 365c bc60
00000010: 27d8 1121 389f acb0 3507 5d0d 16e2 25e7
00000020: f611 e345 02eb bd39 1745 e55d c425 321b
00000030: d6c8 1526 1220 d2d2 2bca 2ea2 2252 0616
00000040: 2023 29ee be08 1314 3a30 ce27 1e57 3521
00000050: e6d9 f1f1 2801 0719 db3a d4d0 cef9 dbe5
00000060: 0a1b 0ef0 2b1a 972b 01fc f144 fb4b f3bf
00000070: f32c 3d49 1ffb f71d 3c7f e6d6 fdca 1316
00000080: 3af1 5f11 f0f5 2cdc 0645 f51c 327f 5a1d
00000090: 111c d55d d430 39d0 27db f3f2 e53c 092f
000000a0: 1ad8 1f12 491d d8e9 2e17 0f1f 2364 f504
000000b0: 1827 1b1a 2ed5 ba40 f934 04ee e729 fedf
000000c0: 21c7 1442 ebf0 35b6 c7d6 c4fc 1fc5 040c
000000d0: ee1d 2f06 dc13 44c2 dcf2 112a 1338 0df2
000000e0: 15e9 fd24 cc23 39f9 0de4 22dd 29ee e718
000000f0: e846 2ec5 ad0b 24ee ebd1 f000 df01 08e0

sequential_8/conv2d_56/Conv2D i1 [1, 2, 2, 32] scale=0.0033887946 zero_point=0
-0.1931613 0.15249576 -0.21010527 0.08471987 0.09149745 0.24060442 -0.2575484 0.08471987
0.21688285 -0.16266215 0.3117691 0.08810866 -0.023721563 -0.33887947 0.17960611 0.105052635
-0.054220714 -0.08471987 0.1829949 -0.17282853 -0.3761562 0.09149745 0.23382683 -0.32193547
-0.17960611 0.11860781 -0.28465876 -0.14232938 0.13894057 0.03727674 -0.050831918 -0.09149745
-0.027110357 0.050831918 -0.09149745 -0.047443125 0.03727674 -0.17960611 -0.060998302 -0.247382
-0.077942275 0.16266215 -0.050831918 0.28804755 0.15249576 -0.14910696 0.04405433 0.1287742
0.26771477 0.21688285 0.16266215 -0.1829949 -0.43037692 0.2507708 -0.14232938 0.16943973
-0.013555178 -0.17282853 -0.22027165 0.24060442 0.1931613 0.077942275 -0.37276742 -0.2507708
0.09488625 -0.31854668 0.27449235 0.15249576 -0.1253854 0.15249576 -0.19655009 0.13894057
-0.023721563 -0.23043804 0.016943973 -0.28804755 -0.17282853 -0.19655009 -0.033887945 0.11521902
-0.28126994 -0.1897725 0.040665537 -0.07455348 -0.2507708 0.1897725 -0.10844143 0.033887945
-0.22366044 0.20332767 0.27110356 -0.22027165 -0.22027165 0.11860781 -0.23382683 -0.3829338
0.020332769 0.06777589 0.07116469 0.18638371 0.17621732 -0.31854668 -0.17960611 0.11521902
0.023721563 0.28804755 -0.27788115 0.22704923 -0.1287742 0.23043804 0.050831918 0.03727674
0.016943973 0.17621732 0.1829949 0.016943973 -0.29482514 -0.13894057 0.06777589 0.1829949
-0.054220714 0.105052635 0.22366044 -0.054220714 -0.040665537 0.41004413 0.006777589 -0.15588455
00000000: c72d c219 1b47 b419 40d0 5c1a f99c 351f
00000010: f0e7 36cd 911b 45a1 cb23 acd6 290b f1e5
00000020: f80f e5f2 0bcb eeb7 e930 f155 2dd4 0d26
00000030: 4f40 30ca 814a d632 fccd bf47 3917 92b6
00000040: 1ca2 512d db2d c629 f9bc 05ab cdc6 f622
00000050: adc8 0cea b638 e00a be3c 50bf bf23 bb8f
00000060: 0614 1537 34a2 cb22 0755 ae43 da44 0f0b
00000070: 0534 3605 a9d7 1436 f01f 42f0 f479 02d2

sequential_8/output/MatMul i1 [10, 784] scale=0.00535238 zero_point=0
-0.1070476 -0.14451426 0.0267619 0.20339045 0.16057141 0.0 -0.12845713 -0.17127617
0.07493332 -0.058876183 0.11239999 0.117752366 0.0535238 0.14986664 0.11239999 0.27832377
0.14986664 0.24085711 0.064228565 0.1338095 0.064228565 -0.032114282 0.02140952 -0.0267619
0.101695225 0.08563808 -0.032114282 -0.14451426 -0.24620949 -0.1873333 -0.1338095 -0.032114282
0.016057141 -0.09099046 -0.11239999 0.048171423 -0.06958094 -0.048171423 -0.1070476 -0.07493332
-0.02140952 0.058876183 0.1070476 0.1338095 0.2140952 0.01070476 0.048171423 0.032114282
0.00535238 -0.1338095 -0.101695225 0.04281904 0.08563808 0.09099046 -0.032114282 -0.13916188
-0.23015235 -0.16592379 -0.14451426 0.07493332 -0.016057141 -0.12845713 0.00535238 0.048171423
0.1070476 -0.03746666 0.016057141 0.01070476 -0.09099046 0.09099046 0.09634285 0.24620949
0.07493332 0.0535238 -0.12845713 -0.016057141 0.07493332 -0.101695225 -0.16057141 0.01070476
0.03746666 -0.01070476 -0.032114282 -0.11239999 -0.30508566 -0.064228565 0.032114282 0.0535238
-0.016057141 0.01070476 0.0 0.117752366 0.18198092 0.14986664 0.080285706 0.0535238
-0.0267619 0.07493332 0.064228565 0.02140952 -0.15521903 -0.3746666 -0.4067809 -0.26226664
-0.19803807 -0.09634285 -0.1873333 -0.12310474 -0.12310474 -0.08563808 -0.14451426 -0.16057141
-0.3479047 -0.032114282 -0.02140952 0.09634285 -0.16592379 0.12845713 0.12845713 0.23015235
0.23015235 0.1873333 0.048171423 0.058876183 0.09634285 0.12845713 0.0 -0.23550473
-0.28367615 -0.50847614 -0.5245333 -0.22479998 0.064228565 -0.117752366 -0.058876183 0.09099046
-0.11239999 -0.07493332 -0.101695225 -0.09634285 -0.45495233 -0.00535238 -0.048171423 -0.09634285
-0.032114282 0.064228565 0.101695225 0.1873333 0.117752366 0.01070476 -0.032114282 0.0535238
0.08563808 -0.1070476 -0.12310474 -0.17662854 -0.24085711 -0.43889517 -0.41748565 -0.4603047
0.01070476 -0.0267619 0.0267619 0.06958094 -0.13916188 -0.117752366 -0.08563808 -0.1873333
-0.27832377 0.09634285 0.14986664 -0.15521903 -0.23550473 -0.058876183 -0.02140952 0.0535238
-0.01070476 0.04281904 -0.03746666 0.17127617 0.12845713 0.0267619 -0.00535238 -0.23015235
-0.101695225 -0.02140952 -0.048171423 -0.15521903 -0.12310474 0.17662854 0.08563808 0.01070476
-0.11239999 -0.08563808 -0.0535238 -0.12845713 -0.016057141 0.16592379 -0.08563808 -0.26226664
-0.13916188 -0.117752366 -0.09099046 -0.06958094 -0.1873333 -0.080285706 -0.06958094 -0.016057141
0.15521903 -0.117752366 -0.06958094 -0.20874283 -0.20874283 0.02140952 0.00535238 -0.00535238
-0.27832377 -0.06958094 0.032114282 -0.04281904 -0.16057141 -0.16592379 -0.1926857 0.00535238
0.15521903 0.117752366 0.0535238 -0.41748565 -0.33719996 -0.2140952 -0.29973328 -0.27832377
-0.25156188 0.0267619 -0.048171423 0.12310474 0.25691426 -0.04281904 -0.04281904 -0.058876183
0.00535238 0.16592379 0.00535238 -0.058876183 -0.07493332 0.117752366 0.032114282 0.080285706
-0.016057141 -0.101695225 -0.13916188 0.032114282 0.11239999 0.1926857 0.24085711 -0.21944758
00000000: ece5 0526 1e00 e8e0 0ef5 1516 0a1c 1534
00000010: 1c2d 0c19 0cfa 04fb 1310 fae5 d2dd e7fa
00000020: 03ef eb09 f3f7 ecf2 fc0b 1419 2802 0906
00000030: 01e7 ed08 1011 fae6 d5e1 e50e fde8 0109
00000040: 14f9 0302 ef11 122e 0e0a e8fd 0eed e202
00000050: 07fe faeb c7f4 060a fd02 0016 221c 0f0a
00000060: fb0e 0c04 e3ba b4cf dbee dde9 e9f0 e5e2
00000070: bffa fc12 e118 182b 2b23 090b 1218 00d4
00000080: cba1 9ed6 0cea f511 ebf2 edee abff f7ee
00000090: fa0c 1323 1602 fa0a 10ec e9df d3ae b2aa
000000a0: 02fb 050d e6ea f0dd cc12 1ce3 d4f5 fc0a
000000b0: fe08 f920 1805 ffd5 edfc f7e3 e921 1002
000000c0: ebf0 f6e8 fd1f f0cf e6ea eff3 ddf1 f3fd
000000d0: 1dea f3d9 d904 01ff ccf3 06f8 e2e1 dc01
000000e0: 1d16 0ab2 c1d8 c8cc d105 f717 30f8 f8f5
000000f0: 011f 01f5 f216 060f fded e606 1524 2dd7
