mnist_bilinear_demo_ptq.tflite (tflite, 34064 bytes, 8 tensors)

sequential_7/input/Conv2D i1 [32, 2, 2, 1]
000000 81 d9 98 5c 5a 6d ce 81 a0 49 95 7f e9 59 ae 81
       -127 -39 -104 92 90 109 -50 -127 -96 73 -107 127 -23 89 -82 -127
000010 bb a8 08 7f 81 7b 73 3d ff a4 81 ec e8 81 df 83
       -69 -88 8 127 -127 123 115 61 -1 -92 -127 -20 -24 -127 -33 -125
000020 81 df e8 c7 b3 ca 7f e6 89 aa 7f a6 a1 ad 7f e0
       -127 -33 -24 -57 -77 -54 127 -26 -119 -86 127 -90 -95 -83 127 -32
000030 d5 53 81 04 87 81 b4 72 81 a7 e1 d4 42 30 d6 7f
       -43 83 -127 4 -121 -127 -76 114 -127 -89 -31 -44 66 48 -42 127
000040 17 e7 2c 81 6c a9 93 7f 74 3e 81 c4 6b 38 cd 7f
       23 -25 44 -127 108 -87 -109 127 116 62 -127 -60 107 56 -51 127
000050 81 7d 0a f7 21 7f 51 04 f7 81 4a 89 04 ca 17 7f
       -127 125 10 -9 33 127 81 4 -9 -127 74 -119 4 -54 23 127
000060 81 74 3a 4f 10 bc 7f ca 7f ec 27 a3 7f 50 a1 2f
       -127 116 58 79 16 -68 127 -54 127 -20 39 -93 127 80 -95 47
000070 89 92 7f bb 00 71 81 ce 87 3f 46 81 02 eb 7f 92
       -119 -110 127 -69 0 113 -127 -50 -121 63 70 -127 2 -21 127 -110

sequential_7/conv2d_45/Conv2D i1 [32, 2, 2, 32]
000000 81 fa e0 d5 1b dd f0 0c 0c 24 48 3e ef cd 1c fc
       -127 -6 -32 -43 27 -35 -16 12 12 36 72 62 -17 -51 28 -4
000010 0e 1f 08 f4 16 18 22 05 c5 03 dd 18 f6 e9 1d 2c
       14 31 8 -12 22 24 34 5 -59 3 -35 24 -10 -23 29 44
000020 16 db 57 2a 2a ef 32 ff d0 44 d6 04 dc 57 fb 18
       22 -37 87 42 42 -17 50 -1 -48 68 -42 4 -36 87 -5 24
000030 a6 f4 1e bd 50 c0 e8 f2 fc fb ee e2 d7 33 fb e7
       -90 -12 30 -67 80 -64 -24 -14 -4 -5 -18 -30 -41 51 -5 -25
000040 02 41 f8 10 06 e7 ff 1e e1 05 d0 0e 20 e7 de 0b
       2 65 -8 16 6 -25 -1 30 -31 5 -48 14 32 -25 -34 11
000050 b5 2b 0c 16 37 2a c0 de 18 ef f5 2c 10 56 26 e5
       -75 43 12 22 55 42 -64 -34 24 -17 -11 44 16 86 38 -27
000060 ed 57 e8 ee 07 22 ee 1b d6 ef ea da 8d 17 cf e5
       -19 87 -24 -18 7 34 -18 27 -42 -17 -22 -38 -115 23 -49 -27
000070 1f 04 30 27 f1 18 ad 2d dd da 3e 03 bf 0d c0 e2
       31 4 48 39 -15 24 -83 45 -35 -38 62 3 -65 13 -64 -30
000080 e8 00 ef 0c ba 2b e1 01 f6 f2 c8 1c 28 e0 de ed
       -24 0 -17 12 -70 43 -31 1 -10 -14 -56 28 40 -32 -34 -19
000090 25 30 1c ee 2d 2b 43 12 ed fd 2a 00 12 f6 f9 0c
       37 48 28 -18 45 43 67 18 -19 -3 42 0 18 -10 -7 12
0000a0 d1 d8 2f a2 ec e5 02 d2 d0 ea 0b d2 db da 16 f8
       -47 -40 47 -94 -20 -27 2 -46 -48 -22 11 -46 -37 -38 22 -8
0000b0 61 e3 09 20 27 0a 01 d5 bc 08 2a d1 f4 c4 24 3e
       97 -29 9 32 39 10 1 -43 -68 8 42 -47 -12 -60 36 62
0000c0 ff 65 eb 42 2c fd 2b 02 38 14 3a 08 c8 d0 23 06
       -1 101 -21 66 44 -3 43 2 56 20 58 8 -56 -48 35 6
0000d0 f0 26 5c d6 02 f8 e5 fb 02 11 0b e7 fd 46 22 e5
       -16 38 92 -42 2 -8 -27 -5 2 17 11 -25 -3 70 34 -27
0000e0 32 1e 18 81 e4 e9 fc 2d 2c d4 16 bd ad 3c f4 c3
       50 30 24 -127 -28 -23 -4 45 44 -44 22 -67 -83 60 -12 -61
0000f0 2c 51 14 d2 f1 e2 02 21 e9 15 1e da 18 c7 2c 02
       44 81 20 -46 -15 -30 2 33 -23 21 30 -38 24 -57 44 2

sequential_7/conv2d_46/Conv2D i1 [32, 2, 2, 32]
000000 02 dc 0e 9c 1b 0c 4e e1 1c 81 d2 c3 d1 f6 b4 0f
       2 -36 14 -100 27 12 78 -31 28 -127 -46 -61 -47 -10 -76 15
000010 b4 48 3b cd 0e 29 33 88 4b 5a 06 34 fe 70 38 55
       -76 72 59 -51 14 41 51 -120 75 90 6 52 -2 112 56 85
000020 1e 1b 2b b8 50 85 2e 5c df fe e2 aa d8 23 3c 09
       30 27 43 -72 80 -123 46 92 -33 -2 -30 -86 -40 35 60 9
000030 e4 f9 0f 11 f3 65 12 eb 21 dc 60 14 55 04 31 0b
       -28 -7 15 17 -13 101 18 -21 33 -36 96 20 85 4 49 11
000040 f9 2f 1f 3c bb 01 ef ad 38 0b e7 06 2d a8 fc 34
       -7 47 31 60 -69 1 -17 -83 56 11 -25 6 45 -88 -4 52
000050 8f 05 f7 01 3b 2b 04 df 25 23 8f ec 41 42 19 9a
       -113 5 -9 1 59 43 4 -33 37 35 -113 -20 65 66 25 -102
000060 d6 3f 4c cb fc da 1d ee 00 31 ef a6 e0 65 e1 42
       -42 63 76 -53 -4 -38 29 -18 0 49 -17 -90 -32 101 -31 66
000070 17 2a 48 f9 34 f3 fb de 31 da ec 2e 31 1a fe db
       23 42 72 -7 52 -13 -5 -34 49 -38 -20 46 49 26 -2 -37
000080 66 1b df 1f 0d 17 17 45 1a 65 62 ee e2 4b e9 18
       102 27 -33 31 13 23 23 69 26 101 98 -18 -30 75 -23 24
000090 54 25 5a f4 ef 0e 93 51 b4 f4 2b e1 5c 02 fe 4a
       84 37 90 -12 -17 14 -109 81 -76 -12 43 -31 92 2 -2 74
0000a0 4c 40 2a 1c 02 6b a6 05 d3 3e f4 db c3 cb ec 40
       76 64 42 28 2 107 -90 5 -45 62 -12 -37 -61 -53 -20 64
0000b0 0a 48 1d d1 1f fd b3 7f 00 89 f6 30 e7 cf ce 13
       10 72 29 -47 31 -3 -77 127 0 -119 -10 48 -25 -49 -50 19
0000c0 ae d7 27 02 d8 c0 dc c6 c0 e3 ef 9c ba d9 aa da
       -82 -41 39 2 -40 -64 -36 -58 -64 -29 -17 -100 -70 -39 -86 -38
0000d0 21 e6 cd 87 bf 02 c9 c1 b8 ea 36 fc 3b d6 ff fc
       33 -26 -51 -121 -65 2 -55 -63 -72 -22 54 -4 59 -42 -1 -4
0000e0 ee 1a c9 fe 0c 0c cc d9 24 97 07 dd 12 d4 c3 08
       -18 26 -55 -2 12 12 -52 -39 36 -105 7 -35 18 -44 -61 8
0000f0 98 af ee ce 10 c6 ba f5 db cd a5 08 ce d4 c3 3c
       -104 -81 -18 -50 16 -58 -70 -11 -37 -51 -91 8 -50 -44 -61 60

sequential_7/conv2d_47/Conv2D i1 [8, 2, 2, 32]
000000 fe 24 fe fa 30 7f 2a ff bd e9 d7 6c 31 24 28 31
       -2 36 -2 -6 48 127 42 -1 -67 -23 -41 108 49 36 40 49
000010 fd 14 70 2e ab d9 0c 3d d9 2e 0b 48 3e f7 4a 2c
       -3 20 112 46 -85 -39 12 61 -39 46 11 72 62 -9 74 44
000020 1e 1c d2 2f d3 bc 51 f2 13 e8 23 da 27 fe e9 ec
       30 28 -46 47 -45 -68 81 -14 19 -24 35 -38 39 -2 -23 -20
000030 e0 cd 27 15 52 f7 40 3c 24 37 30 ed d0 f7 0e e9
       -32 -51 39 21 82 -9 64 60 36 55 48 -19 -48 -9 14 -23
000040 e2 b6 07 d4 21 99 e4 ee c6 2e 3c f7 fa 18 2c ff
       -30 -74 7 -44 33 -103 -28 -18 -58 46 60 -9 -6 24 44 -1
000050 0f 1a 10 ff ef fb f8 13 9e f1 dd ee 08 24 f5 1e
       15 26 16 -1 -17 -5 -8 19 -98 -15 -35 -18 8 36 -11 30
000060 e9 02 ec 45 25 e6 2c 36 24 2b e9 f3 e1 31 04 f3
       -23 2 -20 69 37 -26 44 54 36 43 -23 -13 -31 49 4 -13
000070 12 f1 4c 29 3d 33 01 f5 2b ef 0b 28 f9 1c 0a 38
       18 -15 76 41 61 51 1 -11 43 -17 11 40 -7 28 10 56
000080 f7 20 11 3f f4 33 f8 dc ea 44 0d 21 16 d0 f1 50
       -9 32 17 63 -12 51 -8 -36 -22 68 13 33 22 -48 -15 80
000090 9d df 15 d3 3e c5 0f bf 6c 1f 1e de 81 d1 cd a0
       -99 -33 21 -45 62 -59 15 -65 108 31 30 -34 -127 -47 -51 -96
0000a0 4b 0e 11 d6 cc f2 4a b4 0a 1a 1b 3c b4 c9 1d c2
       75 14 17 -42 -52 -14 74 -76 10 26 27 60 -76 -55 29 -62
0000b0 1f e0 a8 3f c7 57 2e 40 e1 b7 9f 76 e6 58 ed f4
       31 -32 -88 63 -57 87 46 64 -31 -73 -97 118 -26 88 -19 -12
0000c0 e3 0b ec 36 1c 3e d1 e4 db 13 c0 ea 24 e4 0e 27
       -29 11 -20 54 28 62 -47 -28 -37 19 -64 -22 36 -28 14 39
0000d0 0d f4 d9 f2 dc fa b3 05 9f 02 fe c4 0d 34 3f c9
       13 -12 -39 -14 -36 -6 -77 5 -97 2 -2 -60 13 52 63 -55
0000e0 e8 d9 e9 04 fe 25 d6 3d 1a 3c 08 1c ff 52 fc 35
       -24 -39 -23 4 -2 37 -42 61 26 60 8 28 -1 82 -4 53
0000f0 0e 25 c7 ec 23 23 4d f6 d8 c0 ed eb ea df 02 e4
       14 37 -57 -20 35 35 77 -10 -40 -64 -19 -21 -22 -33 2 -28

sequential_7/conv2d_48/Conv2D i1 [32, 2, 2, 8]
000000 bf 09 31 81 f3 ed 07 0a c1 cb c5 ef e4 23 c1 01
       -65 9 49 -127 -13 -19 7 10 -63 -53 -59 -17 -28 35 -63 1
000010 cc 71 28 e0 0e 0b 1a 35 28 4f 13 fd f7 1f e3 ed
       -52 113 40 -32 14 11 26 53 40 79 19 -3 -9 31 -29 -19
000020 22 e8 7f 2b 7b ec 0f c3 cb 45 4b dc 41 da 1a e7
       34 -24 127 43 123 -20 15 -61 -53 69 75 -36 65 -38 26 -25
000030 e3 13 fb 3e db e1 11 ee e0 a4 a3 06 aa 03 d2 3c
       -29 19 -5 62 -37 -31 17 -18 -32 -92 -93 6 -86 3 -46 60
000040 29 1f f7 e0 df c6 4a 85 d0 1f c9 33 b8 26 13 81
       41 31 -9 -32 -33 -58 74 -123 -48 31 -55 51 -72 38 19 -127
000050 e9 3b 3c 33 0f 04 09 c6 18 13 08 c6 fb 07 e4 01
       -23 59 60 51 15 4 9 -58 24 19 8 -58 -5 7 -28 1
000060 fd c0 cb 9c ea 61 bf 54 4f 6b e3 09 e1 cf 67 7f
       -3 -64 -53 -100 -22 97 -65 84 79 107 -29 9 -31 -49 103 127
000070 fe 9e 46 ef 0d f5 c4 d0 b3 bb f2 be d7 85 52 67
       -2 -98 70 -17 13 -11 -60 -48 -77 -69 -14 -66 -41 -123 82 103
000080 2a e7 f9 2d 09 db fd bb ec d4 fe 1b a0 81 a6 35
       42 -25 -7 45 9 -37 -3 -69 -20 -44 -2 27 -96 -127 -90 53
000090 49 18 2a 02 f6 97 e3 fe 12 8f ac 02 82 d5 ee c9
       73 24 42 2 -10 -105 -29 -2 18 -113 -84 2 -126 -43 -18 -55
0000a0 58 8c 74 4a 4f bd 22 86 3e c1 e2 b7 62 e1 cb b5
       88 -116 116 74 79 -67 34 -122 62 -63 -30 -73 98 -31 -53 -75
0000b0 29 46 21 3f 20 f0 e1 a2 16 f5 b8 3e 88 cd f1 81
       41 70 33 63 32 -16 -31 -94 22 -11 -72 62 -120 -51 -15 -127
0000c0 2b 0f dc f3 46 d8 53 1d 2d 3f d8 b9 42 bb d0 cb
       43 15 -36 -13 70 -40 83 29 45 63 -40 -71 66 -69 -48 -53
0000d0 f6 2d be 9a e3 1c 2e ec f9 26 81 8f d3 d5 95 f8
       -10 45 -66 -102 -29 28 46 -20 -7 38 -127 -113 -45 -43 -107 -8
0000e0 06 29 29 07 75 ea dc 68 a2 b3 14 f2 1b c4 05 26
       6 41 41 7 117 -22 -36 104 -94 -77 20 -14 27 -60 5 38
0000f0 0e 75 7f 24 74 b8 06 e1 ef 5f 26 f1 4d eb 1e de
       14 117 127 36 116 -72 6 -31 -17 95 38 -15 77 -21 30 -34

sequential_7/conv2d_49/Conv2D i1 [32, 2, 2, 32]
000000 4d 01 f0 27 11 ab f7 41 f7 10 27 f0 fd 01 c4 0e
       77 1 -16 39 17 -85 -9 65 -9 16 39 -16 -3 1 -60 14
000010 db d9 b3 34 29 71 e3 d3 41 10 16 2f fb 30 98 d6
       -37 -39 -77 52 41 113 -29 -45 65 16 22 47 -5 48 -104 -42
000020 17 c7 08 09 07 b9 1a cd f1 d5 dd 49 fa 3e fa f3
       23 -57 8 9 7 -71 26 -51 -15 -43 -35 73 -6 62 -6 -13
000030 17 26 b7 54 fc 7f 36 c8 fa 11 1f 11 31 d8 3e 08
       23 38 -73 84 -4 127 54 -56 -6 17 31 17 49 -40 62 8
000040 52 19 08 bc e3 48 f9 30 d8 2f f8 c6 e8 cf b2 3c
       82 25 8 -68 -29 72 -7 48 -40 47 -8 -58 -24 -49 -78 60
000050 2c f2 05 1f f6 ff b1 63 20 06 0b 2c df f1 d8 e2
       44 -14 5 31 -10 -1 -79 99 32 6 11 44 -33 -15 -40 -30
000060 19 c4 e5 d0 d5 0c 01 c5 30 eb 13 08 c7 ce b2 43
       25 -60 -27 -48 -43 12 1 -59 48 -21 19 8 -57 -50 -78 67
000070 17 21 0f 35 14 19 06 39 4c 33 ba 4b b9 bb 4c 2c
       23 33 15 53 20 25 6 57 76 51 -70 75 -71 -69 76 44
000080 05 58 f6 f2 08 1f 3d 17 0e 08 d1 1f 19 37 fc ef
       5 88 -10 -14 8 31 61 23 14 8 -47 31 25 55 -4 -17
000090 06 1b 3c 0a ce 8d cb 1d e4 26 df ca 1f f6 fd 3d
       6 27 60 10 -50 -115 -53 29 -28 38 -33 -54 31 -10 -3 61
0000a0 dc 7f 1b 1e e4 56 17 1c f8 1c 19 06 d0 11 09 1f
       -36 127 27 30 -28 86 23 28 -8 28 25 6 -48 17 9 31
0000b0 33 08 07 37 c5 a0 0e 15 15 03 24 d8 08 14 fd 46
       51 8 7 55 -59 -96 14 21 21 3 36 -40 8 20 -3 70
0000c0 ae 1c be f1 ba cb 23 25 f9 a0 c3 8b f4 03 df c2
       -82 28 -66 -15 -70 -53 35 37 -7 -96 -61 -117 -12 3 -33 -62
0000d0 d5 22 da f5 da da cb 0d cf 03 22 ba da 0d db f0
       -43 34 -38 -11 -38 -38 -53 13 -49 3 34 -70 -38 13 -37 -16
0000e0 de 4a fd eb ce 10 26 0d 12 0a c5 a1 07 0b f0 a7
       -34 74 -3 -21 -50 16 38 13 18 10 -59 -95 7 11 -16 -89
0000f0 fc 00 f9 05 c4 cf ce 37 1c 2d d7 b1 17 f3 d9 d5
       -4 0 -7 5 -60 -49 -50 55 28 45 -41 -79 23 -13 -39 -43

sequential_7/conv2d_50/Conv2D i1 [1, 2, 2, 32] scale=0.0041812123 zero_point=0
000000 cd fd 08 f0 df fd 03 06 10 f6 cd 6e fc f7 0e 46
       -0.21324183 -0.012543637 0.0334497 -0.0668994 -0.13798 -0.012543637 0.012543637 0.025087275 0.0668994 -0.041812122 -0.21324183 0.45993334 -0.01672485 -0.037630912 0.058536973 0.29268485
000010 f4 86 cb 21 1a bb e2 ac d1 df e8 3b fc 0e 47 1f
       -0.05017455 -0.5101079 -0.22160426 0.13798 0.10871152 -0.28850365 -0.12543637 -0.35122183 -0.19651698 -0.13798 -0.1003491 0.24669152 -0.01672485 0.058536973 0.29686606 0.12961759
000020 e9 3f 35 e0 e1 0b d5 e7 1a e9 3b 0e 22 30 d3 11
       -0.096167885 0.26341638 0.22160426 -0.1337988 -0.12961759 0.045993336 -0.17979212 -0.104530305 0.10871152 -0.096167885 0.24669152 0.058536973 0.14216122 0.2006982 -0.18815455 0.07108061
000030 e1 81 07 21 ff 8d f6 b0 14 07 f2 1d 06 e5 30 0f
       -0.12961759 -0.53101397 0.029268486 0.13798 -0.0041812123 -0.4808394 -0.041812122 -0.33449697 0.083624244 0.029268486 -0.058536973 0.12125516 0.025087275 -0.11289273 0.2006982 0.06271818
000040 2e ac e7 ed e9 39 d0 12 09 2a cf 64 d0 d4 28 05
       0.19233577 -0.35122183 -0.104530305 -0.07944303 -0.096167885 0.2383291 -0.2006982 0.075261824 0.037630912 0.17561091 -0.2048794 0.41812122 -0.2006982 -0.18397334 0.16724849 0.020906061
000050 32 ae 0b 1a e5 ad b9 a7 25 0d e2 de d8 14 40 0a
       0.20906061 -0.34285942 0.045993336 0.10871152 -0.11289273 -0.34704062 -0.29686606 -0.3721279 0.15470485 0.05435576 -0.12543637 -0.14216122 -0.16724849 0.083624244 0.2675976 0.041812122
000060 ee 03 fe e3 f7 0e e4 dd fd 1f 11 0b be 24 13 d0
       -0.075261824 0.012543637 -0.008362425 -0.12125516 -0.037630912 0.058536973 -0.117073946 -0.14634243 -0.012543637 0.12961759 0.07108061 0.045993336 -0.27596 0.15052365 0.07944303 -0.2006982
000070 00 be 22 2d 01 84 e7 0e 0d d5 29 bc cf d4 17 db
       0.0 -0.27596 0.14216122 0.18815455 0.0041812123 -0.51847035 -0.104530305 0.058536973 0.05435576 -0.17979212 0.17142971 -0.28432244 -0.2048794 -0.18397334 0.096167885 -0.15470485

sequential_7/output/MatMul i1 [10, 784] scale=0.004243978 zero_point=0
000000 f7 f0 fb fd fe fb 12 fe 0d ed 06 03 e7 e6 e3 de
       -0.0381958 -0.067903645 -0.021219889 -0.012731934 -0.008487956 -0.021219889 0.0763916 -0.008487956 0.055171713 -0.08063558 0.025463868 0.012731934 -0.10609945 -0.11034343 -0.12307536 -0.14429525
000010 f1 de e1 fe 09 e3 05 08 f0 fd 0a 04 ff f6 e7 e6
       -0.06365967 -0.14429525 -0.1315633 -0.008487956 0.0381958 -0.12307536 0.021219889 0.033951823 -0.067903645 -0.012731934 0.042439777 0.016975911 -0.004243978 -0.042439777 -0.10609945 -0.11034343
000020 e5 0d 07 08 f5 ec f1 08 e0 d9 f1 f4 f4 04 fd f7
       -0.114587404 0.055171713 0.029707845 0.033951823 -0.046683755 -0.084879555 -0.06365967 0.033951823 -0.13580729 -0.16551514 -0.06365967 -0.050927736 -0.050927736 0.016975911 -0.012731934 -0.0381958
000030 01 fb 04 09 ef 0d 02 24 e6 e4 f6 e2 e1 f6 e2 ef
       0.004243978 -0.021219889 0.016975911 0.0381958 -0.07214762 0.055171713 0.008487956 0.1527832 -0.11034343 -0.11883138 -0.042439777 -0.12731934 -0.1315633 -0.042439777 -0.12731934 -0.07214762
000040 fe 01 ff ff f8 0a e6 fb fe f1 f7 fb f3 f1 09 08
       -0.008487956 0.004243978 -0.004243978 -0.004243978 -0.033951823 0.042439777 -0.11034343 -0.021219889 -0.008487956 -0.06365967 -0.0381958 -0.021219889 -0.055171713 -0.06365967 0.0381958 0.033951823
000050 09 05 15 0d eb e9 de d3 e7 da f2 e5 ec ef f7 15
       0.0381958 0.021219889 0.08912353 0.055171713 -0.08912353 -0.09761149 -0.14429525 -0.190979 -0.10609945 -0.16127115 -0.05941569 -0.114587404 -0.084879555 -0.07214762 -0.0381958 0.08912353
000060 0f 12 f7 f4 0c fd f6 f3 f5 fa 03 f8 f9 f5 19 1a
       0.06365967 0.0763916 -0.0381958 -0.050927736 0.050927736 -0.012731934 -0.042439777 -0.055171713 -0.046683755 -0.025463868 0.012731934 -0.033951823 -0.029707845 -0.046683755 0.10609945 0.11034343
000070 f3 ed d8 e6 dc c4 d2 ca ee 0f 16 12 16 03 fd 16
       -0.055171713 -0.08063558 -0.16975911 -0.11034343 -0.1527832 -0.25463867 -0.19522297 -0.22917481 -0.0763916 0.06365967 0.09336751 0.0763916 0.09336751 0.012731934 -0.012731934 0.09336751
000080 1a f0 18 fb 0a f9 05 eb 02 f4 0b 0f 0f 05 f9 dc
       0.11034343 -0.067903645 0.10185547 -0.021219889 0.042439777 -0.029707845 0.021219889 -0.08912353 0.008487956 -0.050927736 0.046683755 0.06365967 0.06365967 0.021219889 -0.029707845 -0.1527832
000090 d1 cb e1 ef f9 0b 15 2e 2a 21 2b 25 15 02 f5 f3
       -0.19946696 -0.22493082 -0.1315633 -0.07214762 -0.029707845 0.046683755 0.08912353 0.19522297 0.17824706 0.14005128 0.18249105 0.15702718 0.08912353 0.008487956 -0.046683755 -0.055171713
0000a0 0c f5 11 12 f4 f9 0a 1c 11 01 00 d7 c3 c0 e5 d4
       0.050927736 -0.046683755 0.07214762 0.0763916 -0.050927736 -0.029707845 0.042439777 0.11883138 0.07214762 0.004243978 0.0 -0.1740031 -0.25888264 -0.27161458 -0.114587404 -0.18673502
0000b0 ef 0d 22 28 27 20 07 2c 1a 14 1a 08 00 05 10 ff
       -0.07214762 0.055171713 0.14429525 0.16975911 0.16551514 0.13580729 0.029707845 0.18673502 0.11034343 0.084879555 0.11034343 0.033951823 0.0 0.021219889 0.067903645 -0.004243978
0000c0 12 0e f5 1f 0f e3 ee dd d3 f1 f5 f0 12 08 10 1c
       0.0763916 0.05941569 -0.046683755 0.1315633 0.06365967 -0.12307536 -0.0763916 -0.14853923 -0.190979 -0.06365967 -0.046683755 -0.067903645 0.0763916 0.033951823 0.067903645 0.11883138
0000d0 2d 2f 10 25 1b 21 18 0e 01 fd f5 00 09 f4 f3 fc
       0.190979 0.19946696 0.067903645 0.15702718 0.114587404 0.14005128 0.10185547 0.05941569 0.004243978 -0.012731934 -0.046683755 0.0 0.0381958 -0.050927736 -0.055171713 -0.016975911
0000e0 f3 e7 cd c5 cf d5 06 04 12 0e 2b 15 17 24 2d 0b
       -0.055171713 -0.10609945 -0.21644287 -0.2503947 -0.20795491 -0.18249105 0.025463868 0.016975911 0.0763916 0.05941569 0.18249105 0.08912353 0.09761149 0.1527832 0.190979 0.046683755
0000f0 24 19 0f 04 08 12 13 15 ef 0e 04 06 f6 eb da c9
       0.1527832 0.10609945 0.06365967 0.016975911 0.033951823 0.0763916 0.08063558 0.08912353 -0.07214762 0.05941569 0.016975911 0.025463868 -0.042439777 -0.08912353 -0.16127115 -0.23341878
